output/cartpole/DQN/HEADS/DQN_model.pth (torch, 3872 bytes, 4 tensors)

fc1.weight f4 [64, 4]
0	0xbef7b569	-0.48380592
1	0x3dc76b6d	0.09737287
2	0xbef1e6d5	-0.47246423
3	0x3de7c039	0.113159604
4	0x3f75ff08	0.9609227
5	0xbe355b56	-0.17710623
6	0xbfa93aa7	-1.3221024
7	0xbc37cf86	-0.011218911
8	0xbf851be2	-1.0399134
9	0xbde436c2	-0.11143257
10	0x404a678a	3.1625695
11	0x3f706db0	0.9391737
12	0xbeb7195b	-0.35761532
13	0xbebf17f2	-0.37322956
14	0xbf761ff1	-0.9614249
15	0xbf1b256c	-0.60603976
16	0x3d9288cf	0.071550004
17	0x3d7650a0	0.060135484
18	0x3ecb3b31	0.39693597
19	0x3e8715da	0.2638386
20	0xbfa50bd1	-1.2894231
21	0x3df976db	0.12180873
22	0x3fe593ed	1.7935768
23	0x3f2bc34b	0.6709487
24	0x3de066cc	0.10957107
25	0x3e36d108	0.17853177
26	0xbf27231e	-0.6528796
27	0xbeb7dbe3	-0.35909948
28	0x3efade5a	0.48997766
29	0x3f54e657	0.8316397
30	0x3fcfc1f6	1.6231067
31	0x3fa5c88b	1.2951826
32	0xbf5d163f	-0.8636207
33	0x3ecc1ab1	0.39864114
34	0xbcb99ee1	-0.022658767
35	0xbec2ca7d	-0.3804511
36	0x3f6d8e0b	0.92794865
37	0xbf2a449e	-0.6651095
38	0xbf83df9d	-1.0302616
39	0xbe23b290	-0.15986085
40	0x3e3f5ec2	0.18688491
41	0xbdfc162f	-0.12308919
42	0xbfc7bbbb	-1.5604166
43	0xbf7f38e5	-0.9969619
44	0xbf064008	-0.52441454
45	0x3e5eae95	0.21746285
46	0x3ee61262	0.449359
47	0xbe9244c7	-0.28568098
48	0xbe10c5af	-0.1413791
49	0x3f0561ba	0.52102244
50	0xbdbbf6f1	-0.0917796
51	0xbf4ce5f0	-0.80038357
52	0xbf790417	-0.97271866
53	0xbf2fd9a6	-0.6869148
54	0xbf78a663	-0.97128886
55	0x3f09f496	0.53888834
56	0x3e99c3aa	0.30032092
57	0x3e9e02fd	0.30861655
58	0xbf901e2f	-1.1259211
59	0xbf07d790	-0.530633
60	0x40076f6c	2.1161757
61	0x3ebbd554	0.36686194
62	0xbf315ddb	-0.6928384
63	0xbe27e932	-0.1639755
64	0xbd425547	-0.047444608
65	0x3f01cc6c	0.5070255
66	0x3f087992	0.533105
67	0x3e8ad8f8	0.2711866
68	0x3f3129a5	0.6920417
69	0xbbac69bc	-0.005261628
70	0xbf6dc0db	-0.928724
71	0x3ea4b1b2	0.3216682
72	0xbd3e16de	-0.046408527
73	0xbf2cea69	-0.6754518
74	0xbfa3f109	-1.2807933
75	0x3df45ca1	0.1193173
76	0xbde8302f	-0.11337315
77	0x3f0f5064	0.5598204
78	0x3f9d05f8	1.2267447
79	0xbea3595b	-0.3190411
80	0x3e2cf5f9	0.16890706
81	0x3f0d6473	0.552314
82	0x3f624f03	0.8840181
83	0xbefb3ee6	-0.49071425
84	0x3e4eeabd	0.20206733
85	0xbf4d31bd	-0.8015402
86	0xbf3e2b9d	-0.742853
87	0x3ec48e4c	0.38389814
88	0x3f22c986	0.6358875
89	0x3e401174	0.18756658
90	0xbfa78940	-1.308876
91	0x3ded903d	0.11599777
92	0x3f1d73b1	0.61504656
93	0x3e05317f	0.13007163
94	0xbfae77b4	-1.363028
95	0x3e165b3f	0.14683245
96	0xbf1a391e	-0.60243404
97	0xbed8e1a9	-0.42359665
98	0x3badddb9	0.0053059724
99	0xbf0ecd00	-0.55781555
100	0xbfd0b6d3	-1.6305794
101	0xbfbafa32	-1.4607604
102	0xbee19049	-0.44055393
103	0xbeec48ab	-0.4614919
104	0xbec4ddc2	-0.38450438
105	0x3ecc9c98	0.39963222
106	0x3f988fd5	1.1918894
107	0x3e940ac3	0.2891446
108	0xbf69fffa	-0.91406214
109	0xbe29a89b	-0.16568224
110	0xbfb3be1e	-1.4042394
111	0xbe99a15a	-0.30005914
112	0x3e3a241d	0.18177839
113	0x3dacda1e	0.0844004
114	0x3ee5c3e9	0.4487603
115	0xbeacd2ea	-0.33754665
116	0x3dad27e9	0.08454878
117	0x3ecb000d	0.39648476
118	0x3f962224	1.1729169
119	0xbe24a990	-0.16080308
120	0xbf7a8f0d	-0.9787453
121	0xbe6d03d6	-0.23145995
122	0xbfd43280	-1.6577911
123	0xbe2d4d03	-0.16923909
124	0xbfd28451	-1.644663
125	0x3eecb645	0.4623281
126	0x40775990	3.8648415
127	0x3f0af926	0.5428642
128	0x3d11fd06	0.035641693
129	0x3f5f1f2d	0.87156945
130	0x3cd37489	0.025812404
131	0xbe36ddd8	-0.17858064
132	0x3e80aad8	0.25130343
133	0x3ee633e6	0.4496147
134	0xbe98cd66	-0.29844207
135	0x3edfa8dd	0.4368352
136	0x3da5e950	0.081011415
137	0xbf324dca	-0.69649947
138	0xbfd306fc	-1.6486506
139	0xbf1be000	-0.6088867
140	0xbf66296a	-0.8990694
141	0xbe8aed55	-0.27134195
142	0x3f4e55cc	0.80599666
143	0xbda80f9e	-0.08206104
144	0x3e9384ba	0.288122
145	0x3f041deb	0.5160815
146	0x3d0b0270	0.03393787
147	0xbf2db6cf	-0.6785707
148	0xbea1efc8	-0.3162825
149	0xbf676605	-0.90390044
150	0xbea0756b	-0.31339583
151	0xbeb0f96b	-0.3456529
152	0x3f240dd7	0.6408362
153	0xbdf9dedb	-0.122007094
154	0xbf9a59d0	-1.2058659
155	0x3e49ff38	0.19726264
156	0x3fbd4668	1.4787111
157	0x3db1246e	0.086495265
158	0xbf98dde7	-1.1942719
159	0xbf034735	-0.5128053
160	0xbf38152b	-0.719073
161	0xbf28eb6f	-0.65984243
162	0xbe5613bf	-0.2090597
163	0x3f6ffc0f	0.93743986
164	0x3f7e850d	0.9942177
165	0x3dd5d6cd	0.104413606
166	0x3f00d413	0.503236
167	0xbee3ed93	-0.44517192
168	0x3efa3564	0.4886886
169	0xbdb48631	-0.088146575
170	0x3eac5cb1	0.33664468
171	0xbe9195cc	-0.28434598
172	0xbe8d08e9	-0.2754586
173	0xbf43986b	-0.76404446
174	0x3f151ec7	0.5825009
175	0x3f07212b	0.52784985
176	0xbec7c4ef	-0.39017436
177	0xbecd0bba	-0.4004801
178	0x3f00c5f4	0.5030205
179	0x3f3723d8	0.7153907
180	0xbdca6342	-0.09882213
181	0x3e9fd7ee	0.3121943
182	0xbe963f3b	-0.29345116
183	0xbe9be452	-0.30447632
184	0xbf5375c1	-0.82601553
185	0xbf46fe22	-0.77731526
186	0x3f913948	1.1345606
187	0x3f3f276a	0.74669516
188	0x3e4860b9	0.19568147
189	0xbf69b4f4	-0.9129174
190	0x3f3cac82	0.73700726
191	0x3eaee6be	0.34160417
192	0x3ee0a02d	0.43872204
193	0xbeecf67b	-0.462818
194	0xbf1b5eeb	-0.6069171
195	0xbea74690	-0.32671022
196	0x3ec3a505	0.38211837
197	0xbe064d50	-0.1311543
198	0xbf910935	-1.1330935
199	0xbf3a5539	-0.7278629
200	0x3f1ffd9d	0.6249636
201	0x3e9ff570	0.3124194
202	0x3f821ec5	1.016564
203	0x3ef78a03	0.48347482
204	0x3ebe6af0	0.37190962
205	0xbe78560a	-0.24251571
206	0xbffb3387	-1.96251
207	0xbf5f645a	-0.872625
208	0x3f2cbcce	0.67475593
209	0x3e2fde0a	0.17174545
210	0xc008dec3	-2.1385963
211	0xbf687148	-0.90797853
212	0xbf27dcaa	-0.6557108
213	0x3e6e3baf	0.23264955
214	0x401da216	2.463018
215	0x3fa1907c	1.2622218
216	0x3ef291ce	0.47376865
217	0x3ef01f19	0.46898726
218	0x3e64c37f	0.22340201
219	0x3ef6f7cf	0.48235938
220	0x3f79bf02	0.9755708
221	0x3ec21df4	0.37913477
222	0x3f900098	1.1250181
223	0x3eb73bbb	0.35787758
224	0xc01cbcf3	-2.4490325
225	0xbef10012	-0.47070366
226	0x400a70d9	2.1631377
227	0x3f6e0ccb	0.9298827
228	0xbfb51b35	-1.4148928
229	0xbf57ac24	-0.8424704
230	0xbf845c54	-1.0340676
231	0xbf3b8f4f	-0.73265547
232	0x3fa08ea4	1.254353
233	0xbc155d5f	-0.0091165
234	0xbffa3c6d	-1.954969
235	0xbf350e85	-0.7072528
236	0xc02da5ad	-2.713237
237	0xbf7b3f1c	-0.9814317
238	0x40070f00	2.1102905
239	0x3e963fdb	0.29345593
240	0xbfdde7ba	-1.7336342
241	0x3e85d94b	0.26142344
242	0x3fcc6866	1.596936
243	0x3f62e680	0.88632965
244	0x3f72d191	0.9485102
245	0xbe2439ee	-0.16037723
246	0xc02b2824	-2.674325
247	0xbf542845	-0.82873946
248	0x3e4cdc1d	0.20005842
249	0xbf0ec5a7	-0.55770344
250	0xbfccb340	-1.5992203
251	0xbf64620f	-0.89212126
252	0x3cf3f1bb	0.029778352
253	0x3e5a2634	0.21303636
254	0x40871899	4.2217526
255	0x3fe99f91	1.8251821

fc1.bias f4 [64]
0	0x3efca79f	0.49346635
1	0xbe4412b9	-0.19147767
2	0x3e50a53b	0.2037553
3	0x3e044d18	0.12920034
4	0x3d9e15e2	0.077190176
5	0x3e99e475	0.3005711
6	0x3cc872d0	0.02446881
7	0xbe5e085e	-0.2168288
8	0xbeba016a	-0.36329204
9	0x3f865de3	1.0497402
10	0x3f8f1838	1.1179266
11	0xbfa450dd	-1.2837178
12	0xbed9c44a	-0.4253257
13	0x3f7ffa57	0.99991363
14	0x3e52e019	0.20593299
15	0x3facd696	1.3502986
16	0xbf226f45	-0.63451034
17	0x3f6c0297	0.9219145
18	0x3f86ef06	1.0541694
19	0xbf309a86	-0.68985784
20	0xbf98c493	-1.193499
21	0x3f10ec89	0.56610924
22	0x3f940389	1.1563579
23	0x3f9abb9b	1.2088503
24	0xbcb53f2c	-0.02212485
25	0x3f33200c	0.69970775
26	0x3ddfab3a	0.10921331
27	0xbe2f9fbd	-0.17150779
28	0xbe7ffa94	-0.24997932
29	0xbecaa522	-0.3957911
30	0x3e924689	0.2856944
31	0x3f9abe91	1.2089406
32	0xbf682bb9	-0.90691715
33	0x3f1e7756	0.6190084
34	0x3fb3904c	1.4028411
35	0xbefe82fb	-0.49709305
36	0xbf8f2433	-1.1182922
37	0x3f1f3990	0.6219721
38	0x3f99197d	1.1960903
39	0x3f3a0a15	0.72671634
40	0xc0044e4d	-2.067279
41	0x3fbc5f19	1.4716522
42	0x3f7da6d7	0.990827
43	0xbff331da	-1.8999588
44	0xbfffe3bb	-1.9991373
45	0x3e09199a	0.13388672
46	0x3f87d177	1.0610799
47	0x3f58bc33	0.8466217
48	0x3dd8e9f5	0.10591499
49	0x3f002b0c	0.50065684
50	0xbedddfa1	-0.43334678
51	0x3e86b5b2	0.26310498
52	0xbdcab2e1	-0.098974
53	0xbe08d05f	-0.13360737
54	0xbf20a2b5	-0.6274827
55	0xbf36876e	-0.713004
56	0xbf7ed0a0	-0.99537086
57	0x3c539596	0.012914082
58	0x3f25da93	0.6478664
59	0xbf96e0a7	-1.1787308
60	0xbe39a8ac	-0.1813075
61	0x3f21fdc9	0.6327787
62	0x3dce56aa	0.100751236
63	0x3fe80280	1.8125763

fc2.weight f4 [2, 64]
0	0xbf24b68e	-0.64341056
1	0x3fa80ee1	1.3129541
2	0x3efa60ef	0.4890208
3	0xbf850a9d	-1.0393864
4	0xbf0f40a0	-0.55957985
5	0x3eb5f6e2	0.3553992
6	0x3f407af1	0.75187594
7	0x3f646438	0.8921542
8	0xbeecf366	-0.46279448
9	0x3f0b75e6	0.54476774
10	0x3e6b4fcc	0.22979659
11	0xbe5bb8ed	-0.21457262
12	0xbee862f6	-0.45388
13	0x3d90c754	0.07069269
14	0x3e93429c	0.28761756
15	0x3d1c6e78	0.03819129
16	0xbe192601	-0.14955904
17	0x3e92e2b3	0.28688583
18	0x3e954382	0.29153067
19	0xbdb4977d	-0.088179566
20	0xbed99309	-0.4249499
21	0xbcfe61ab	-0.031052431
22	0x3dd32827	0.10310393
23	0x3e8d9ae0	0.27657223
24	0xbfbd3b7b	-1.4783777
25	0x3eb61d89	0.3556941
26	0x3ff8f053	1.9448341
27	0xbfeb8d81	-1.8402559
28	0xbfb13378	-1.3843832
29	0x3fb9f86e	1.452894
30	0x3eb1fc1e	0.34762663
31	0x3f0bae56	0.5456289
32	0xbed0d3cf	-0.40786597
33	0x3ef9450c	0.4868549
34	0x3e3c1eb9	0.18371095
35	0xbe2f61b2	-0.17127112
36	0xbf0013c7	-0.5003018
37	0x3aa233a1	0.0012375006
38	0x3dc4b59b	0.09604951
39	0x3ee1c367	0.44094393
40	0xbf6bff8d	-0.92186815
41	0x3f176753	0.59142035
42	0x3ee569c6	0.4480726
43	0xbf3bdb90	-0.733819
44	0xbf6e1fde	-0.93017375
45	0x3ec9e07a	0.39429075
46	0x3edbb376	0.42910355
47	0x3f03d5f0	0.5149832
48	0xbe5649ee	-0.2092664
49	0xbe0599ec	-0.13046998
50	0x3f73da9a	0.95255435
51	0xbf7c4739	-0.9854618
52	0xbee7d573	-0.45280036
53	0x3ef9ca0d	0.48786965
54	0x3f7979a1	0.97451216
55	0x3f865565	1.049481
56	0xbf5a6f74	-0.85326314
57	0x3f6cde65	0.9252685
58	0x3f4ce7e9	0.80041367
59	0xbf649ad0	-0.89298725
60	0xbfa6c041	-1.3027421
61	0x3f160e02	0.58615124
62	0x3f33c10d	0.7021645
63	0x3efce249	0.49391392
64	0xbf373857	-0.7157034
65	0x3fa0e26e	1.2569101
66	0x3eef7301	0.4676743
67	0xbf0dc523	-0.5537893
68	0xbf9e84f5	-1.2384325
69	0x3f09047a	0.53522456
70	0x3f53f931	0.8280211
71	0x3f15be17	0.5849318
72	0xbeb0a51b	-0.34500965
73	0x3f25c1a6	0.6474861
74	0x3e692069	0.2276627
75	0xbd8eacba	-0.06966539
76	0xbe9231ea	-0.28553706
77	0xbc8dec6b	-0.017324647
78	0x3f0379d6	0.5135778
79	0x3d9d179e	0.0767052
80	0xbe899c8e	-0.26877254
81	0x3ee32ec1	0.44371608
82	0x3e02e3f2	0.12782267
83	0xbdb1c4f4	-0.08680144
84	0xbeb89665	-0.36052242
85	0xbe20e5fc	-0.15712732
86	0x3eb9c3b4	0.36282122
87	0x3d020c74	0.031750157
88	0xbffe824b	-1.9883512
89	0x3e821d04	0.25412762
90	0x3fcfa7a0	1.622303
91	0xc0033dcb	-2.0506465
92	0xbfe93282	-1.8218539
93	0x3fb7ae40	1.4350052
94	0x3f10555b	0.5638024
95	0x3f96f386	1.1793067
96	0xbed81f41	-0.42211345
97	0x3eaad12e	0.33362716
98	0x3e760cf7	0.24028383
99	0xbe974bad	-0.29549924
100	0xbeff927b	-0.49916443
101	0xbdf07209	-0.117405005
102	0x3cfd1ae2	0.030896608
103	0x3ed0ab03	0.40755472
104	0xbf890f80	-1.0707855
105	0x3f455ed9	0.7709785
106	0x3e1b6bdd	0.15177865
107	0xbf532534	-0.8247864
108	0xbf6c91c5	-0.92409927
109	0x3e93c289	0.28859356
110	0x3e63e065	0.22253568
111	0x3d643ccd	0.055722047
112	0xbf0a6b72	-0.540702
113	0x3f1c2196	0.6098875
114	0x3f8c1fbf	1.0947188
115	0xbf5a5fa5	-0.8530219
116	0xbf06efa7	-0.5270943
117	0x3e7db0fb	0.24774544
118	0x3f5663f1	0.8374625
119	0x3fa0046a	1.2501347
120	0xbec504b2	-0.38480145
121	0x3e394f85	0.1809674
122	0x3f0df599	0.5545288
123	0xbf24b57b	-0.6433942
124	0xbf124cb3	-0.57148284
125	0x3ee16743	0.44024095
126	0x3f2d0e72	0.67600167
127	0x3f90f059	1.1323348

fc2.bias f4 [2]
0	0x3f0369f9	0.51333576
1	0x3ed3a4b9	0.4133661
