output/mountaincar/DQN/MLP/DQN_model.pth (torch, 20764 bytes, 6 tensors)

fc1.weight f4 [64, 2]
000000 dc 4e f4 3c 19 33 a6 be 83 73 b2 3e ef cf 04 bc
       0.02982276 -0.3246086 0.34853753 -0.008106216
000010 8d c6 bd 3e 4c 5f 47 be 38 9c 18 3e 4e be 08 bf
       0.37065545 -0.19469947 0.14903343 -0.5341538
000020 f7 1c 12 3e 3a 8d e7 be 60 e0 61 bd bd 3e 05 3f
       0.14268862 -0.45224935 -0.05514562 0.52048856
000030 40 07 0e bf 8a 53 22 bf 4c 02 03 3e 50 ad e5 be
       -0.5547981 -0.6340872 0.12793845 -0.4485879
000040 e5 23 a9 be 32 3b 1b bf 07 9c 2a bf 5e 8d 07 bf
       -0.33035198 -0.606372 -0.6664433 -0.52950084
000050 d8 d4 eb 3e c8 a6 af be f3 c3 13 bf db bc 01 3f
       0.46060824 -0.34306931 -0.5772087 0.50678796
000060 95 87 38 bf b6 b3 22 bf 80 e1 20 bc e0 19 d8 3c
       -0.7208188 -0.6355547 -0.009819388 0.026379526
000070 76 6b d3 3d 1e 1a 09 be 10 51 c0 3e 0b 7e df bc
       0.10323231 -0.13388869 0.37561846 -0.027281782
000080 97 fb ec be 77 c0 33 bf e0 a0 66 be 9e 95 bc 3e
       -0.46285698 -0.70215553 -0.22522306 0.368329
000090 55 a0 03 bf ac 02 ad be a8 6c c8 be ac e0 44 bf
       -0.5141652 -0.337911 -0.39145398 -0.7690532
0000a0 65 14 82 3e 2f 40 b3 3e e4 d4 03 3f a5 69 0c 3d
       0.25406185 0.35009906 0.5149672 0.034280438
0000b0 2c 2e 84 3e 48 60 13 3e f1 0b 63 3e 22 24 08 be
       0.25816476 0.14392197 0.22172524 -0.13295034
0000c0 b4 b3 46 be a3 91 d1 3e 97 af 81 3e 97 6a dd be
       -0.19404489 0.40931424 0.25329277 -0.43245384
0000d0 fd 2b 02 3f 95 7b df 3e 98 11 1e 3f 16 42 3d 3f
       0.5084837 0.43648973 0.61745596 0.73928964
0000e0 4a a5 b7 be d6 cb 2f 3e 67 04 25 3f f0 e2 0a 3d
       -0.35868293 0.17167601 0.6445984 0.03390783
0000f0 7a 75 15 bf fd 0d 81 be 48 75 60 3e e7 3e 0b 3f
       -0.5838238 -0.25205985 0.21919739 0.54392856
000100 29 bc 69 be fb 38 48 bf 4d 75 0d 3f ae df 67 bc
       -0.22825684 -0.78211945 0.5525711 -0.0141524505
000110 fd f8 ff 3e 9c ed bb 3f 68 a7 18 bf ff 30 0a bf
       0.4999465 1.4681888 -0.5963044 -0.5398101
000120 85 da 1a bf 8b 1f 99 3e 54 21 8c be d3 c1 af be
       -0.60489684 0.29906878 -0.27369177 -0.34327564
000130 ff 63 aa 3e f7 a0 89 be 4d 20 13 3f d2 ef fc be
       0.33279416 -0.2688062 0.5747116 -0.49401718
000140 23 db bb be b2 ea 7c bf b3 63 ff be 46 2a 52 bf
       -0.36690626 -0.98795617 -0.49880752 -0.82095754
000150 c2 0b 40 bf 8c b4 32 bf 24 9c 6e 3e 3d 08 19 bf
       -0.7501794 -0.6980674 0.2330175 -0.59778196
000160 82 06 6a 3e b8 50 2e bf b8 3d 34 bf b1 c3 91 be
       0.22854045 -0.6809192 -0.70406675 -0.28469613
000170 12 42 f3 be 3d 80 9d 3e 0a 5c 08 3f e8 d5 4b 3f
       -0.47511345 0.307619 0.5326544 0.7962327
000180 92 5b ae 3e 38 6c 23 3e 42 0d b7 3e bc 5d b3 be
       0.34054238 0.15959251 0.35752302 -0.3503245
000190 be 1a 3b 3e 55 d2 2c be 08 3e e5 3d 62 f9 a0 3e
       0.1827192 -0.1687711 0.11193472 0.31440264
0001a0 b9 a2 34 bf 28 3c fd bc e3 d4 75 be cf bc e2 be
       -0.70560795 -0.030912474 -0.24006991 -0.44284675
0001b0 b0 e2 a1 3d 36 41 fd 3e 2a 49 fb 3e a9 9c d8 be
       0.07904565 0.49463814 0.49079257 -0.42307022
0001c0 42 4e a8 be f5 e5 8a be af 20 75 3e a9 cf 48 bf
       -0.32872206 -0.27128568 0.23938249 -0.78441864
0001d0 ec 1f 12 be 38 f3 c1 bd 9c e6 61 3e a4 fc 94 3e
       -0.1426999 -0.094702184 0.22060627 0.29099
0001e0 d0 54 20 3d 90 c2 97 3d 36 51 d3 3e 97 2f 2c bf
       0.039143384 0.07410157 0.41272897 -0.67260116
0001f0 d4 2e 0d 3f 60 85 09 3f 4d 3b 4d 3e fc c2 12 bf
       0.5514958 0.5371914 0.20042153 -0.5732877

fc1.bias f4 [64]
000000 93 3b 11 3f b8 4a 80 3e b7 0d cd 3e dd be e5 be
       0.5673153 0.25057006 0.40049526 -0.4487218
000010 b0 13 7c 3e 52 98 9f be 4b e4 ac bd 02 43 74 3e
       0.24616885 -0.311709 -0.08441981 0.23853686
000020 07 cc b5 3e 70 fb 54 3b 1a 99 67 be 80 37 ec 3e
       0.35507223 0.0032498501 -0.22616997 0.46136093
000030 b8 ca d1 bd 58 35 06 be 30 de 40 3f c4 07 3f 3f
       -0.10243744 -0.13106287 0.7533903 0.74621224
000040 0c 9d f3 3d 36 4a 9a be 02 6b 42 3f 56 e8 ef bc
       0.11895189 -0.30134743 0.7594453 -0.029285591
000050 a7 87 ae 3e 49 3d 0c 3f f6 ac 05 bf bd 33 19 3f
       0.3408787 0.54781014 -0.5221704 0.5984457
000060 ea e8 57 3f 22 66 48 3e 0f 64 4d 3f c7 a7 e1 3e
       0.84339774 0.1957021 0.802308 0.44073316
000070 e6 04 23 3f 00 8d b7 be 7d 26 25 be f2 29 7b be
       0.6367935 -0.35849762 -0.16127963 -0.2452772
000080 e4 13 5c 3d bd 0f 20 3f 69 84 ee 3e 5e e5 5f 3f
       0.053729907 0.62524015 0.46585396 0.8745936
000090 ee 17 1e 3f 70 7c 03 3f 7c 48 c4 3e dc f7 16 bf
       0.61755264 0.5136175 0.3833655 -0.58971953
0000a0 97 9e 0d 3b 85 73 f2 3e 77 7d 85 bd a8 d2 7c be
       0.002160942 0.4735376 -0.06518071 -0.24689734
0000b0 3c b5 5c 3e 93 dd 48 3d 13 cd 3a 3e 5a e4 d1 3e
       0.2155351 0.049039435 0.18242292 0.4099453
0000c0 70 9f 33 be 0d 1a 87 be 76 06 ff 3e 89 27 ae be
       -0.1754129 -0.26387063 0.49809617 -0.34014538
0000d0 23 15 4a 3f 56 10 48 3f d8 cd f8 be c7 d8 f3 be
       0.789385 0.78149927 -0.48594546 -0.47626325
0000e0 7b d8 dc be 52 cb 24 3f 8f b8 8a be bb 9f 00 bf
       -0.43133911 0.6437274 -0.27093932 -0.5024373
0000f0 16 d9 0a bf 9f 25 e5 be 3d 7f 18 3f 4f 93 61 3e
       -0.54237497 -0.44755265 0.5956915 0.2202885

fc2.weight f4 [64, 64]
000000 d3 61 9e bc 67 c6 0b bd 1b 38 90 3d d8 c8 f5 3c
       -0.019333756 -0.034124758 0.07041951 0.030002996
000010 ac aa 0b bd 20 05 d2 bd 30 de 15 be 85 fd 9f bd
       -0.034098312 -0.10254884 -0.14635539 -0.07812027
000020 be 4a 58 bd 5b 88 d7 bd 70 8b b1 3c a3 73 b5 3c
       -0.052805655 -0.105240546 0.021672934 0.022149866
000030 13 12 35 be 68 49 c9 bc ab 96 8c bd ca 20 30 be
       -0.17682676 -0.024571136 -0.06864675 -0.17200008
000040 c3 06 a1 bc 52 bd 8a bd 75 3b 4e 3b 3f 3e 3d be
       -0.019656545 -0.06774391 0.0031468545 -0.18480776
000050 dc 97 84 3d 5a 8c ef bd 08 40 5e bd 3e db f0 bd
       0.064742774 -0.11696692 -0.054260284 -0.11760567
000060 1e 06 91 3c 64 bc 81 3d 51 ae 84 3c 20 ea 55 3d
       0.017703112 0.06334761 0.016196402 0.052225232
000070 90 13 3a be 70 15 e5 3d 5b 59 05 3c 20 ac c4 3b
       -0.18171525 0.111857295 0.00813898 0.006001964
000080 e3 87 0b 3c 97 55 2c be 00 88 bf 39 11 7d 49 be
       0.008516285 -0.16829525 0.00036531687 -0.19676615
000090 c9 3d 3c 3d 99 59 14 3d 51 48 ad 3d 04 04 5c bd
       0.04595736 0.03621826 0.08461059 -0.053714767
0000a0 4f 56 70 3d 00 e6 17 be 00 a1 36 be 3c 2f 70 3d
       0.05867606 -0.14833832 -0.17834854 0.058638796
0000b0 6a 9a ad 3c cf bf fe bc 4e 0a 13 bc 54 0f d2 3d
       0.021191794 -0.03109732 -0.008974625 0.1025683
0000c0 96 7b e1 3d 00 70 bb 3b 99 9e 34 be 40 ff 1e bc
       0.110099 0.0057201385 -0.17638625 -0.009704411
0000d0 e9 17 d2 bd a8 70 54 bd 80 15 8a 3c 68 d5 fe bd
       -0.10258467 -0.05186525 0.016855955 -0.12443048
0000e0 44 8e d5 bd fd ec e7 3c 9a 9c e8 3d cc 49 07 3d
       -0.10427526 0.028311247 0.113579944 0.033029363
0000f0 d8 46 e2 3c 84 dc 1c bd 94 26 94 3c 17 02 cb 3d
       0.027621672 -0.038296238 0.018084802 0.09912508
000100 59 89 46 bd 07 db 3a be 20 14 a2 3c 16 e1 a9 bd
       -0.04847083 -0.18247615 0.019784987 -0.08294885
000110 53 52 69 bb 30 63 36 bd 95 dc ad bc 26 a1 42 3d
       -0.0035602048 -0.044528186 -0.021223346 0.047516964
000120 71 09 ce bd b1 6f bb 3c 44 70 e5 bd d2 fb 09 be
       -0.100603946 0.022880407 -0.112030536 -0.13474968
000130 ea 63 a8 bb c4 93 be 3d 83 2b 15 3d 42 bb 4b 3d
       -0.005138864 0.09305528 0.03641845 0.04973913
000140 a6 18 15 3d 80 55 4b bb 38 84 21 be 76 f2 93 bd
       0.03640046 -0.0031026304 -0.15773094 -0.0722398
000150 30 8a 32 be 9e e4 87 bd 6c 5d 04 bd 75 8c cf 3c
       -0.17435527 -0.06635402 -0.032315657 0.02533553
000160 27 6c 35 be cf d6 0d be 4e df 4d bd cc 5e 82 3d
       -0.17717038 -0.13851474 -0.050261788 0.06365737
000170 f3 d7 2c be 1c ae 3f bd 23 3e 03 bd c6 f2 b8 bd
       -0.16879253 -0.046796903 -0.03204168 -0.0903068
000180 2c 1c 0b be 54 7a 8b bd 7a 0e ee bd 66 34 21 3b
       -0.13584965 -0.068104416 -0.11623855 0.0024597882
000190 cc 7c fb 3c 99 b1 04 be 21 25 db 3b 88 ec 60 bd
       0.030699156 -0.12958373 0.0066877757 -0.054913074
0001a0 8a 72 37 be 46 eb 30 be ce 38 ee bb 70 ce 78 3c
       -0.17914787 -0.1727725 -0.0072699552 0.015185937
0001b0 40 5b 73 bd cf 6a a9 3c a1 ce 83 3a 96 44 27 bd
       -0.059413195 0.020680813 0.0010056087 -0.040836893
0001c0 40 0a b3 3b 92 91 f3 bd 36 0b 45 bd 60 9a c5 3d
       0.0054638684 -0.11893 -0.048106395 0.09648585
0001d0 af 9f 5c 3d 0c c6 ab bd 00 4d 23 3b 38 58 96 bd
       0.053863224 -0.08387384 0.0024917722 -0.07341045
0001e0 92 15 af bd 15 66 84 3d 34 9f 82 3d 3c e3 e8 bd
       -0.08549036 0.06464783 0.06378022 -0.113714665
0001f0 e6 31 ac bd 40 0f 1e bd c2 91 0b be 7b 96 cc bd
       -0.08407955 -0.038588762 -0.13629821 -0.09989639
000200 3f 4a 99 bd d2 a7 bc 3c 54 58 b0 bc 10 3c 33 3c
       -0.074848644 0.023029242 -0.021526493 0.010939613
000210 e7 b1 d7 bd 24 b0 a9 3d 8c 92 fc bd da 0b 8e bd
       -0.10531979 0.08285549 -0.12332639 -0.06935854
000220 75 2b 87 bd 6f bc 32 bd 54 93 b1 bd fe 97 69 3c
       -0.06600086 -0.043636736 -0.08670679 0.014257429
000230 64 37 a2 bd 28 ae ab bd 6c a7 8f 3c c0 40 85 3c
       -0.07920721 -0.08382827 0.017535888 0.016266227
000240 ea 1d 66 3d 72 47 8b 3d 7d 3d 29 bd 08 16 21 bc
       0.056180872 0.068007365 -0.041318405 -0.009831913
000250 1b 07 25 be e7 fa 2b be bc 51 af bd 56 29 0a be
       -0.16115992 -0.1679493 -0.085605115 -0.13492331
000260 28 cb 3c bd 94 7a e6 bd 48 13 1d be 50 75 69 3d
       -0.046092182 -0.11253849 -0.15339386 0.056996644
000270 3f 8c 10 bd dc c3 14 bd e4 e5 33 be 98 9b 93 bc
       -0.03529 -0.0363196 -0.17568165 -0.018018529
000280 32 6a fc 3c ec a1 23 3d 80 32 3c bc 09 05 1d be
       0.030812357 0.039949343 -0.0114866495 -0.15333952
000290 8c e2 48 b9 72 bb 0a be bb e4 11 be e8 c4 aa 3c
       -0.00019157882 -0.13548067 -0.1424741 0.020845845
0002a0 3c e0 46 3d 0e 2b 82 3a b3 2c 06 be 10 36 f8 bc
       0.04855369 0.0009931044 -0.13102989 -0.030299217
0002b0 86 6b 42 3d 8c 62 10 be e5 32 84 bd f2 ca a0 3a
       0.047465824 -0.14100093 -0.0645502 0.0012267514
0002c0 04 58 ea bd ee e7 8d bd 35 f5 35 be 26 72 b9 3d
       -0.11442569 -0.06929003 -0.1776932 0.09054975
0002d0 0e e9 e3 3c eb 30 06 3d 24 24 5f bd 80 d8 22 bc
       0.02782109 0.032761496 -0.054477826 -0.009939313
0002e0 40 90 37 bb bb 23 61 3d 20 ee d8 3b 9a 8b c6 3d
       -0.0028009564 0.054965716 0.0066201836 0.09694596
0002f0 88 41 53 bd f0 a8 90 bd 6d cf 8e bd 73 c9 c0 3c
       -0.051576167 -0.07063472 -0.06973157 0.023533558
000300 ec 6b 6c 3d f0 a4 86 3d 05 40 2a bd 80 d0 c6 ba
       0.05772011 0.06574428 -0.04156496 -0.0015168339
000310 33 e9 c9 bd be d5 ff 3d 89 7b 61 bd 53 51 4c bc
       -0.09858932 0.1249194 -0.055049453 -0.012470561
000320 fe 8a 7d bd 0f c5 5a 3c c8 95 bc bc e0 e5 34 be
       -0.06190013 0.0133526465 -0.02302064 -0.17665815
000330 4d bd 64 bd 4e e1 e3 3d b8 f4 87 bc 01 b5 8e bd
       -0.055844594 0.11126958 -0.016596183 -0.069681175
000340 27 d7 3f be 78 45 bd bd 2c 62 b6 bc 0a fc db bd
       -0.18734418 -0.09241766 -0.022263609 -0.10741432
000350 00 b6 0c be 71 5f 09 bd 80 12 89 bb 3a 3f 37 3d
       -0.13741302 -0.033538286 -0.0041831136 0.044738032
000360 70 17 61 bd 5b e8 cd 3c 87 6d ab bd 49 c9 de 3d
       -0.054953992 0.02513521 -0.083705 0.10878236
000370 c2 41 35 be 90 71 ca bd 98 69 40 3d 08 44 25 bd
       -0.17700866 -0.098849416 0.046975702 -0.040348083
000380 08 30 37 be 03 d9 c2 bc 16 9e 03 3e fe 28 26 bd
       -0.17889416 -0.02378512 0.12853274 -0.040566437
000390 47 89 1d be ff 15 19 be 83 b0 6b 3d 8a 34 f2 3d
       -0.15384398 -0.14949797 0.05754138 0.11826427
0003a0 18 eb df bd ff fd 89 bc 69 db 10 be 58 54 92 3c
       -0.109335124 -0.016844748 -0.14146198 0.017862484
0003b0 5c 74 d5 bd 10 86 61 3c e8 af 8a bd a6 9b 03 bd
       -0.104225844 0.013764873 -0.06771833 -0.03213086
0003c0 48 29 db bd 30 6a dc bd 06 67 9f bd 28 70 df bc
       -0.10701233 -0.10762441 -0.07783322 -0.02727516
0003d0 b5 e3 33 be bc 35 a3 bd 90 ab 60 bd 4c 15 0a 3d
       -0.17567332 -0.079692334 -0.054851115 0.033711717
0003e0 7c 19 4d 3d 6e 09 0f bd 08 2b 0e 3d bc f8 be 3d
       0.050073132 -0.034921102 0.034709007 0.09324786
0003f0 10 13 55 bd 38 dd 6f 3d 98 d4 cb bd 09 fe 13 bc
       -0.052020133 0.05856058 -0.099526584 -0.009032735

fc2.bias f4 [64]
000000 26 d4 db bd 1d a5 1f bd ac a4 f4 bc 6b 7c 73 bd
       -0.107338235 -0.038975824 -0.029863678 -0.059444826
000010 d5 0f 29 be 7f 04 86 3e 55 56 4b 3e f4 46 d1 bd
       -0.16509946 0.26175305 0.19857152 -0.10218611
000020 36 d7 91 3d fe a8 a3 3e d8 94 95 3d 3b e6 e2 bd
       0.07121126 0.31964868 0.0730378 -0.11079069
000030 15 e9 0b be 15 9a b3 3e 61 0d 86 ba 3c c1 6d bd
       -0.13663132 0.35078493 -0.0010227376 -0.05804561
000040 a7 df 44 3d 1d f1 36 be 94 96 a7 bd 20 85 03 be
       0.048064854 -0.17865415 -0.081830174 -0.12843752
000050 58 40 a7 3c ec 7b 77 3e 08 61 b9 3c 40 2a fa bc
       0.020416424 0.24168366 0.022629276 -0.030537724
000060 42 0f d6 3c 56 e6 bd bd da 68 21 be 87 28 8a 3e
       0.026130322 -0.09272449 -0.15762654 0.26984045
000070 82 ab 1b bb 14 b6 1a bd 58 76 3c bd 24 ea a3 bd
       -0.002375335 -0.0377713 -0.0460113 -0.08003643
000080 b4 c9 d1 bd 50 e4 0d 3c 47 2e 9d bd c8 40 ab bc
       -0.1024355 0.008660391 -0.07674842 -0.020904914
000090 fc f3 ab 3e 30 e2 a8 bd af 3f 84 3b ae 84 dd bd
       0.33584583 -0.08246267 0.004035912 -0.10816322
0000a0 94 c3 cb bd a3 95 7c bd e1 85 00 3d 79 d1 3e bb
       -0.09949413 -0.061666142 0.031377677 -0.0029116555
0000b0 ac 03 76 bd e8 2d 19 3d bf d7 8d 3e 1e 65 83 3e
       -0.060062096 0.037397295 0.27703664 0.25663084
0000c0 f1 a8 d5 3d 68 0a 8c bd 80 0a cc ba 18 70 49 3e
       0.10432614 -0.06837922 -0.0015567094 0.19671667
0000d0 fc 26 0e 3d 08 fc 32 bd 50 c8 84 3c 95 9d e3 bc
       0.034705147 -0.043697387 0.016208798 -0.027785102
0000e0 6d d6 91 3e f2 23 e9 bd e8 d9 9f bd 31 4c e5 bd
       0.28483906 -0.11383809 -0.07805234 -0.11196173
0000f0 1b 04 76 3c 2c e5 cd bd 8a 26 89 bc b9 05 16 be
       0.015015627 -0.10053477 -0.01674201 -0.1465062

fc3.weight f4 [3, 64]
000000 af ca d1 b9 48 da 96 bd ca 9d 5c 3d 15 7a 36 bd
       -0.00040014597 -0.073658526 0.053861417 -0.04455002
000010 68 ce 52 bd 5c 68 9d be 84 05 ba be 65 ef 1f be
       -0.051466376 -0.30743682 -0.36332333 -0.15618666
000020 c0 16 60 3d ec dd b7 be bc e6 ca 3d 1b 67 cb bd
       0.054709196 -0.359115 0.0990729 -0.09931775
000030 72 4c 89 bd ed 43 8f be f2 87 d6 3c 72 06 95 bd
       -0.06704034 -0.2798151 0.02618787 -0.0727662
000040 99 9d 89 bc 80 1b 84 bd 34 52 34 3d 26 5c 28 3b
       -0.016798781 -0.06450558 0.044023708 0.002568969
000050 2e dd bd bd 4d f8 80 be 30 13 85 3d 84 2b 08 bd
       -0.09270702 -0.25189438 0.064978 -0.033244625
000060 dd bb b3 3c 4c f7 4f 3d 68 d0 22 3d b7 44 d2 be
       0.021940166 0.05077295 0.039749533 -0.4106805
000070 c9 fe a8 bd 8e 2c 2f bc 08 2a 27 3d 1e b5 ef bd
       -0.082517214 -0.010691775 0.04081157 -0.11704467
000080 a0 0b 9b 3c ae 68 9e 3d bd f1 81 3c 6e ea ae bd
       0.018926442 0.0773481 0.01586234 -0.08540808
000090 a3 44 b7 be c0 75 0b bc 22 07 bc bd 20 fc 2e bc
       -0.35794553 -0.0085119605 -0.09181048 -0.0106802285
0000a0 e6 70 1f bc 30 d6 f4 3c 03 62 b4 bc 00 8f 68 3d
       -0.009731507 0.029887289 -0.022019392 0.056777
0000b0 0c ea 88 bd 60 3b bf 3d da fa d8 be bc 85 b5 be
       -0.06685266 0.09337497 -0.42378885 -0.35453594
0000c0 e8 77 7e bd 92 e7 c3 ba ce 18 e1 3d b4 11 a3 be
       -0.06212607 -0.0014946333 0.10991059 -0.31849444
0000d0 50 c6 39 bd 30 f8 45 3c 8c 5c 5e bd 0e 99 04 be
       -0.04535514 0.012083098 -0.05428748 -0.1294901
0000e0 33 06 cc be 50 86 ae 3d c1 5b 19 be 20 03 21 be
       -0.3984848 0.08521712 -0.14976408 -0.15723848
0000f0 af 40 07 bd d4 4e 87 3d 57 d7 62 3c 8e c2 c7 bd
       -0.03302067 0.06606832 0.013845286 -0.09753905
000100 d6 0a f8 bd 81 ed 14 3d 9c 64 c3 bd 4e ab e5 bd
       -0.12111442 0.036359314 -0.09540674 -0.112143144
000110 25 df b5 3c ec 8b 8d be 1a 7c 7a be 1b 4c 4b 3d
       0.02220113 -0.27645814 -0.24461403 0.049633127
000120 70 ba 13 3d 6b ad bc be 94 80 6e 3d c4 77 43 bd
       0.036066473 -0.36851057 0.05822809 -0.04772164
000130 e3 db 5f 3d 23 a4 d2 be 74 20 09 be d8 de d1 bd
       0.05465306 -0.4114085 -0.13391286 -0.10247582
000140 7b 3b 7e bd 8a 62 61 3c 5a 36 9d 3d d1 5f f1 bd
       -0.062068444 0.013756404 0.07676382 -0.11785854
000150 60 7b f2 bd 66 06 87 be d4 af 6a 3d 70 6a ca bd
       -0.11839938 -0.2637207 0.05729659 -0.098835826
000160 db 90 b4 3c 0f 60 53 3d ff e3 3b be bf d9 ee be
       0.022041729 0.05160528 -0.18348692 -0.46650502
000170 90 66 4c 3d 23 96 9e bd 46 4f a9 3d 58 e3 88 3d
       0.0499025 -0.0774348 0.08267073 0.066839874
000180 80 0b 24 3b 20 d8 00 bc b6 5b 31 be a6 65 b1 3d
       0.0025031269 -0.007864028 -0.17320141 0.08661966
000190 63 c7 9a be 2c 44 a5 bd fe 92 c4 bb 16 3f 91 3d
       -0.30230245 -0.080696434 -0.005998968 0.07092111
0001a0 ab e8 b1 bc 00 2f 95 3b ac f7 c0 3d 2a 3c 84 3d
       -0.02171739 0.004552722 0.0942224 0.06456788
0001b0 60 dc 17 bd 68 82 8a bd 52 7a dc be dd b0 a2 be
       -0.0370754 -0.06763154 -0.43062073 -0.3177556
0001c0 ae f2 aa bc 0e 15 07 3d 14 3d bd bd e4 db ba be
       -0.020867672 0.032979064 -0.09240165 -0.36495888
0001d0 90 75 0b bd 98 cb 23 3d 7c cf 56 bd 68 91 5f 3d
       -0.034047663 0.039989084 -0.052443966 0.05458203
0001e0 a7 36 b7 be 3c 28 37 bd 92 f2 e4 3c 1a 5d f2 bd
       -0.35783884 -0.044716105 0.027947698 -0.11834164
0001f0 f9 1e e4 bd 70 31 da 3c 80 fa 05 3c bb c9 e1 3c
       -0.1113872 0.026634902 0.0081774 0.027562013
000200 67 c7 86 3c 52 b8 46 bd 0b ed e8 bd b1 fe c2 bd
       0.016452504 -0.048515625 -0.11373337 -0.09521235
000210 50 bc ba bd fb c9 bc be 91 4c b9 be e5 58 ac 3c
       -0.09117949 -0.3687285 -0.36191228 0.021038482
000220 cc d9 18 bd 93 ac a0 be a8 52 f9 3c 46 ab 7a bd
       -0.037317082 -0.31381664 0.030434921 -0.061198495
000230 76 45 b9 bd 99 28 d8 be 3e 80 10 bd 40 3f 96 3c
       -0.09046452 -0.42218474 -0.03527855 0.018340707
000240 7f 7c 37 bd 68 cc a7 bd a0 37 a4 bb a1 e5 e4 bd
       -0.044796463 -0.08193284 -0.005011514 -0.11176611
000250 50 68 a6 3d c3 17 a9 be 18 da cc 3d 34 b5 9b 3d
       0.08125365 -0.3302594 0.100025356 0.07602921
000260 06 98 01 be aa 4e de bd ce e4 21 bd fd 9f 3d be
       -0.12655649 -0.10854848 -0.039524846 -0.18518062
000270 00 f0 41 39 ed 50 45 3d e4 31 b8 bd 04 0b 3c 3d
       0.00018495321 0.04817288 -0.08993891 0.045908943
000280 74 6a 47 bd 30 d1 bf bd f7 ea 01 bb 30 a2 ba bd
       -0.048685506 -0.09366071 -0.0019823888 -0.09112966
000290 e3 cf 97 be 30 61 45 bc f0 c6 58 3c da bb b7 3d
       -0.29650792 -0.012047097 0.013231024 0.08971377
0002a0 fb 54 95 bc 41 e9 fc bc fc 29 ea 3d b0 c3 c6 3d
       -0.018228998 -0.030872943 0.11433789 0.09705293
0002b0 5e da e4 3d 60 e8 d0 3d 35 74 9b be b9 3d cd be
       0.11174463 0.10200572 -0.30362096 -0.40086153
0002c0 15 f5 aa 3d f1 43 c7 bd 98 23 72 bd bb 1c cf be
       0.08347527 -0.09729756 -0.059115976 -0.40451607
0002d0 dc c5 9b 3d 90 dc 68 bd 80 19 38 bc ae 63 2d 3d
       0.07606098 -0.05685097 -0.011236548 0.04233139
0002e0 ff 1c c8 be d0 ea 50 bc 9b 2b 93 bc fa 46 b7 bc
       -0.39084622 -0.012751296 -0.017965129 -0.022372711
0002f0 17 52 d2 3b 50 cb 01 bc a8 0c dc bd 2e 8d 2d bd
       0.0064184773 -0.007922009 -0.107446015 -0.042370968

fc3.bias f4 [3]
000000 36 2a 6b be f2 2f 84 be 8b 31 af be
       -0.22965321 -0.2581783 -0.34217486
