output/cartpole/DQN/MLP/DQN_model.pth (torch, 21020 bytes, 6 tensors)

fc1.weight f4 [64, 4]
0	0x3e15c72e	0.14626762
1	0x3e2b99ca	0.16757885
2	0x3d93d030	0.07217443
3	0x3e99d86e	0.30047935
4	0xbe336d28	-0.17522109
5	0xbc33e0a7	-0.010978854
6	0x3e7bbd47	0.24583922
7	0x3e4585d8	0.19289339
8	0x3e0094fc	0.12556833
9	0xbdda0714	-0.10645881
10	0xbfa3065c	-1.2736316
11	0xbeda0e85	-0.42589203
12	0x3fa3bb6c	1.2791572
13	0x3ee1153d	0.43961516
14	0xbf20ca1c	-0.62808394
15	0xbe160130	-0.1464889
16	0x3f98f9f3	1.1951278
17	0x3ea73e7d	0.32664862
18	0xbf6f1647	-0.9339337
19	0xbdf0acde	-0.11751722
20	0xbe2e2b06	-0.170086
21	0x3d011a13	0.031519007
22	0x3de5d189	0.11221606
23	0x3e61134d	0.21980019
24	0xbe2b2288	-0.16712391
25	0xbe30c4c4	-0.1726256
26	0x3fc3a2d8	1.5284071
27	0x3d8ea7f0	0.06965625
28	0xbe22b14a	-0.15887943
29	0xbd076353	-0.033053707
30	0x3e812168	0.252208
31	0x3d8ae3c6	0.067817256
32	0x3e03191f	0.12802552
33	0x3da69ea2	0.081357256
34	0x3ce5440a	0.027986545
35	0xbd905ac5	-0.07048563
36	0x3ad2e8a4	0.0016091061
37	0x3e8db565	0.27677456
38	0x3dcfc2b8	0.101445615
39	0x3efb1c2b	0.49044928
40	0x3e244d90	0.16045213
41	0x3f31f1df	0.6950969
42	0x3bdd033c	0.0067447703
43	0xbdb49a67	-0.088185124
44	0xbddf3fe8	-0.10900861
45	0x3bad1e80	0.005283177
46	0xbe9f5f26	-0.3112728
47	0x3df1e428	0.118110955
48	0xbde6d739	-0.11271519
49	0xbc130cd8	-0.00897523
50	0x3f258f6d	0.64671975
51	0xbe08eb37	-0.13370977
52	0xbf2571cc	-0.64626765
53	0x3e117caf	0.1420772
54	0x3f34d7ab	0.70641583
55	0xbdad4352	-0.08460106
56	0xbe116158	-0.1419729
57	0x3ef9401f	0.48681733
58	0x3f1f60fe	0.62257373
59	0x3e0c2a1f	0.13687943
60	0x3fa06c0e	1.2532976
61	0xbd05c0da	-0.03265462
62	0xbf6408f8	-0.89076185
63	0x3c933e0e	0.017973926
64	0xbf4e3ee7	-0.8056473
65	0x3d4cd0f2	0.050003953
66	0x3e758e1f	0.23979996
67	0xbbc22c2b	-0.0059256754
68	0x3dab366d	0.0835999
69	0xbbc7abae	-0.006093464
70	0x3cadcae7	0.021214915
71	0xbcc2b020	-0.023765624
72	0x3e3ffb3f	0.18748187
73	0xbe077ca7	-0.13231145
74	0xbd0aab6a	-0.03385488
75	0xbcbecc84	-0.02329088
76	0x3e217aa9	0.15769447
77	0x3d24e814	0.04026039
78	0x3eca2b91	0.39486364
79	0x3db107a7	0.08644038
80	0x3c58622f	0.013207003
81	0x3c4f252c	0.01264314
82	0xbec65ef6	-0.38744324
83	0xbdfdb5e8	-0.123882115
84	0x3f26431d	0.64946157
85	0x3f028694	0.509866
86	0x3f7122e4	0.94193864
87	0x3f3ab851	0.72937495
88	0xbed8e9d1	-0.42365888
89	0xbe99f524	-0.3006984
90	0xbf07e74a	-0.53087294
91	0x3d75180f	0.059837397
92	0x3e89d69d	0.2692155
93	0xbe2b3401	-0.16719057
94	0xbddf6efa	-0.10909839
95	0xbde7b08b	-0.1131297
96	0x3e9839d1	0.2973161
97	0xbea78ed7	-0.32726166
98	0x3da6144a	0.081093386
99	0x3e3d8d86	0.18511018
100	0xbf387d65	-0.72066337
101	0x3e9523a9	0.2912877
102	0x3f862fe4	1.0483365
103	0x3eadbafd	0.33931723
104	0x3e99c674	0.3003422
105	0x3e7c2353	0.2462285
106	0xbfb517d2	-1.4147894
107	0xbe43aa29	-0.1910788
108	0x3cca08eb	0.024662456
109	0xbf02533a	-0.50908244
110	0xbdfc28a4	-0.12312439
111	0xbdb9aa29	-0.090656586
112	0xbee36b8b	-0.44417986
113	0x3e913ed4	0.28368247
114	0x3fbaa359	1.45811
115	0x3ed73c1a	0.4203804
116	0xbf239395	-0.6389707
117	0x3e8b16b2	0.27165753
118	0x3c1d506b	0.009601693
119	0x3e1c3f6b	0.15258567
120	0x3ea3feab	0.32030234
121	0xbc8ac6b3	-0.01694045
122	0xbd8e80e3	-0.06958177
123	0x3d916ea4	0.07101181
124	0x3e3eb8b3	0.18625145
125	0xbde5dc58	-0.11223668
126	0xbb959ed3	-0.0045660525
127	0xbdbc1567	-0.0918377
128	0xbf669491	-0.90070444
129	0x3d020980	0.03174734
130	0x3f4211a0	0.75808144
131	0x3dba34ac	0.090920776
132	0x3f3d4791	0.73937327
133	0xbe53add6	-0.20671782
134	0xbfb275d4	-1.3942208
135	0xbecb5145	-0.3971044
136	0x3efa1187	0.48841497
137	0xbe8a5b11	-0.27022603
138	0xbde25c69	-0.11052782
139	0xbd180f94	-0.03712423
140	0x3e1bd202	0.1521683
141	0xbe87e6cc	-0.26543272
142	0x3ef616d1	0.48064283
143	0xbe5ec7dd	-0.2175593
144	0x3e8f71b0	0.28016424
145	0xbd8d4cb1	-0.06899393
146	0xbe33cea8	-0.17559302
147	0x3e82bd50	0.2553506
148	0xbf56cfbe	-0.8391074
149	0x3e8332bf	0.25624654
150	0x3ff826e9	1.9386874
151	0x3ef61473	0.48062477
152	0xbdd24f94	-0.102690846
153	0xbe3f18ea	-0.18661848
154	0x3fe33925	1.7751814
155	0x3e65fb8b	0.22459237
156	0x3f167043	0.5876505
157	0xbe4d9bf1	-0.20079018
158	0xbfd13dd8	-1.6346998
159	0xbef25908	-0.4733355
160	0xbeb25e5d	-0.34837618
161	0x3dc8b046	0.097992465
162	0x3f1ecd58	0.6203208
163	0xbe4716dc	-0.19442314
164	0xbeee3a2d	-0.4652876
165	0xbdb5c7ad	-0.08875976
166	0x3e8d4f84	0.27599728
167	0xbf0f0582	-0.5586778
168	0x3c8b203c	0.016983144
169	0x3e202c49	0.15641893
170	0x3fbec6ea	1.4904454
171	0x3efa3dc0	0.48875237
172	0x3f8abe14	1.0839257
173	0x3ea65b21	0.324914
174	0xbe08a6e7	-0.13344918
175	0x3e213e24	0.15746361
176	0xbcd1c0d9	-0.025604652
177	0x3ebb200d	0.3654789
178	0x3e4fdbb6	0.20298657
179	0x3e45af04	0.19305044
180	0xbd96b184	-0.07358077
181	0x3f14ee3a	0.58176005
182	0xbe27498f	-0.16336654
183	0x3e045889	0.12924398
184	0x3e680ce3	0.22661166
185	0xbe8c26b2	-0.27373272
186	0xbddfda95	-0.10930363
187	0xbdab12d4	-0.083532006
188	0xbf35ea9e	-0.7106112
189	0x3e85d74c	0.2614082
190	0x3fdd33bf	1.7281417
191	0x3f00d5a6	0.50326
192	0x3e9e3812	0.30902153
193	0x3caa84bf	0.020815251
194	0x3e38d1c2	0.18048766
195	0x3e28a75d	0.16470094
196	0xbf4c556d	-0.7981785
197	0xbd9df4f9	-0.077127405
198	0xbddc8f95	-0.107695736
199	0x3d7a0816	0.061042868
200	0xbdb32988	-0.08748156
201	0x3e74414e	0.23853037
202	0x3fc89f07	1.5673531
203	0x3edc81ea	0.43067867
204	0xbf26ef72	-0.65209115
205	0xbbce1087	-0.0062885913
206	0x3f482c72	0.7819282
207	0x3cb559e0	0.022137582
208	0xbda88770	-0.08228958
209	0xbcb657d2	-0.022258673
210	0x40000d95	2.000829
211	0x3f069e0a	0.525849
212	0x3da598bd	0.08085773
213	0x3e350e08	0.17681134
214	0xbe4e960e	-0.20174429
215	0x3dbc704a	0.09201105
216	0x3f90a2fd	1.129974
217	0xbef3b9da	-0.4760273
218	0xbf862625	-1.0480391
219	0xbef4cdf9	-0.47813395
220	0xbddfdf98	-0.10931319
221	0x3e11f574	0.14253789
222	0x3fce468b	1.6115278
223	0x3ec523ad	0.3850378
224	0xbc8c6f3b	-0.017142883
225	0xbd8a919e	-0.067660555
226	0x3e1d88b7	0.15384184
227	0x3c336b8e	0.010950936
228	0x3e185a7b	0.14878266
229	0x3e545f60	0.20739508
230	0xbeaeae8a	-0.34117538
231	0x3e434db1	0.19072606
232	0x3f8b624e	1.0889375
233	0xbf0ce2a7	-0.55033344
234	0xbf6690df	-0.90064806
235	0xbefde90b	-0.4959186
236	0xbeac83db	-0.33694348
237	0x3eb8dd34	0.36106265
238	0x3fe07168	1.7534609
239	0x3eb51635	0.35368505
240	0xbf67745a	-0.90411913
241	0xbf887977	-1.0662068
242	0xbe4f71be	-0.20258233
243	0xbd9bb6f6	-0.076032564
244	0xbda9bd71	-0.08288086
245	0x3ee9e8d4	0.45685446
246	0xbe2e8cda	-0.17045918
247	0x3eb0ad04	0.34507
248	0x3e816038	0.25268722
249	0x3d81fb6c	0.06346783
250	0x3e8df04e	0.277224
251	0x3d2df049	0.042465482
252	0xbfb81f62	-1.4384577
253	0xbf943939	-1.1579963
254	0x3d8908a2	0.066911
255	0x3df220e5	0.118226804

fc1.bias f4 [64]
0	0x3f4ed683	0.8079607
1	0x3f3f4b6e	0.7472447
2	0xbf021cbf	-0.50825113
3	0xbee83ae2	-0.45357424
4	0xbf22b64c	-0.6355941
5	0xbf07ad3a	-0.529987
6	0xbe5c003b	-0.21484463
7	0x3f0d7ac3	0.55265445
8	0x3f8cbbc6	1.0994804
9	0x3f950f81	1.1645356
10	0xbdd7660a	-0.10517509
11	0xbef96c66	-0.48715514
12	0x3f4a161d	0.7893999
13	0x3f8a0ed1	1.0785772
14	0x3f21915e	0.6311244
15	0xbe0731cf	-0.13202594
16	0xbd6a1767	-0.057151224
17	0x3f54b55b	0.83089226
18	0xbe761746	-0.24032316
19	0xbeaec4fd	-0.34134665
20	0x3f6ca0bb	0.92432755
21	0xbf089e86	-0.5336689
22	0x3ca7a298	0.020463273
23	0x3f1170e8	0.56812906
24	0x3f6b3211	0.9187327
25	0xbeee3276	-0.46522874
26	0xbf23bd0c	-0.6396034
27	0x3dd8beea	0.10583289
28	0xbeaefd6f	-0.3417773
29	0x3e5fd9af	0.21860383
30	0x3e173655	0.1476682
31	0x3e941379	0.28921106
32	0xbef13d74	-0.47117198
33	0xbe9ad602	-0.302414
34	0x3e15ec47	0.14640914
35	0x3e98a00e	0.29809612
36	0x3eff39a5	0.49848667
37	0xbef9d8b1	-0.48798135
38	0xbeb15475	-0.34634748
39	0xbe999f84	-0.30004513
40	0x3f8e45af	1.1115016
41	0xbec41c76	-0.38302964
42	0x3dd1a24a	0.10236032
43	0xbe54fed1	-0.2080033
44	0xbf1c62f0	-0.61088467
45	0x3f1a134d	0.601857
46	0x3f04d94e	0.5189408
47	0xbf121222	-0.5705892
48	0x3f849885	1.0359045
49	0xbdde04cd	-0.108407594
50	0xbe3f6329	-0.1869017
51	0xbeb2b360	-0.34902477
52	0xbeacc130	-0.3374114
53	0x3f0a9b65	0.54143363
54	0xbf039a83	-0.5140764
55	0xbed6ef62	-0.4197951
56	0x3e8eee6d	0.2791628
57	0x3f200fe2	0.62524235
58	0xbf04eef4	-0.51927114
59	0x3d910610	0.070812345
60	0x3f61b0c9	0.8816038
61	0x3f03c4ad	0.5147198
62	0xbf033d80	-0.51265717
63	0x3deef01d	0.11666892

fc2.weight f4 [64, 64]
0	0x3caa328d	0.020776058
1	0x3dfce1c4	0.12347749
2	0xbf1a5d1e	-0.60298336
3	0xbed1c1b6	-0.40968102
4	0xbea8e513	-0.3298727
5	0x3cb472f5	0.022027472
6	0xbeb11bae	-0.3459143
7	0x3d0f3400	0.0349617
8	0x3d90dd0a	0.0707341
9	0x3e2326eb	0.15932815
10	0xbe0ef473	-0.13960437
11	0xbde23294	-0.11044803
12	0x3d36be6a	0.044615187
13	0x3d6f65ba	0.058446623
14	0xbc63fe0a	-0.013915548
15	0xbf0f7882	-0.56043255
16	0xbe0bf9a8	-0.13669455
17	0x3df1dc94	0.1180965
18	0xbd66f258	-0.05638346
19	0x3e009db0	0.12560153
20	0x3e3364c7	0.17518912
21	0xbf45d8a4	-0.7728369
22	0x3c4eb23c	0.012615737
23	0x3dcf01f2	0.10107793
24	0x3ddcb477	0.107766084
25	0xbee89b55	-0.4543101
26	0xbf0832da	-0.53202593
27	0xbdc5f536	-0.09665911
28	0xbf53e763	-0.82774943
29	0xbc0b0e19	-0.008487248
30	0x3c9b2902	0.018940452
31	0xbd888afc	-0.06667134
32	0xbeb2a31b	-0.34890065
33	0xbeaba21a	-0.3352211
34	0xbd986e10	-0.07442868
35	0xbdf6c558	-0.12049359
36	0x3dbda28e	0.092595205
37	0xbf102ed1	-0.56321436
38	0xbebaa8f7	-0.36457035
39	0xbf08e55e	-0.53474987
40	0x3d67e0f0	0.056611
41	0xbe225f95	-0.15856774
42	0xbed64626	-0.41850394
43	0xbee19e2c	-0.44065988
44	0x3d81ea04	0.06343463
45	0x3e30283f	0.17202853
46	0xbc99b3a3	-0.018762415
47	0xbf62a44a	-0.88531935
48	0x3dc8ca5b	0.09804221
49	0xbe11af8e	-0.14227125
50	0xbf300b7b	-0.6876752
51	0xbe47cb7b	-0.19511215
52	0xbed90508	-0.4238665
53	0xbd01d889	-0.031700645
54	0xbf486a72	-0.7828742
55	0xbf444fb4	-0.7668412
56	0xbdac06c0	-0.08399725
57	0x3ddd6f81	0.10812283
58	0xbfa2f4ce	-1.2730958
59	0xbe905e91	-0.28197148
60	0xbe03870e	-0.12844488
61	0x3e2186d0	0.15774083
62	0xbd6883f4	-0.056766465
63	0xbefe22bc	-0.49635875
64	0x3e290db1	0.16509129
65	0x3e9ecf7f	0.31017682
66	0xbf092674	-0.535743
67	0xbebff331	-0.37490228
68	0xbeb73074	-0.35779154
69	0xbe31ad28	-0.1735121
70	0xbe80bd99	-0.25144652
71	0x3db7090f	0.08937275
72	0x3e04e289	0.12977041
73	0x3e3c23de	0.18373057
74	0xbdcd8646	-0.10035376
75	0x3cd41df8	0.025893196
76	0xbda67492	-0.08127703
77	0x3e456cdb	0.19279806
78	0x3d7f0233	0.062257957
79	0xbf083e7a	-0.5322033
80	0x3d492a39	0.049112532
81	0x3c2816bd	0.0102593275
82	0xbda73a94	-0.0816547
83	0x3d5e54ff	0.054280277
84	0xbdf1fbeb	-0.11815628
85	0xbf54f61a	-0.8318802
86	0xbdf244b6	-0.11829512
87	0x3d18ba61	0.03728712
88	0x3e1e98a1	0.15487911
89	0xbf04512c	-0.5168636
90	0xbecf7837	-0.40521404
91	0xbd5ce28a	-0.053926982
92	0xbf015c63	-0.50531596
93	0x3dd6a30f	0.1048032
94	0x3bd069d6	0.006360273
95	0xbd15d22c	-0.03657739
96	0xbecb5fb4	-0.39721453
97	0xbeb4a17f	-0.35279462
98	0xbd2b661b	-0.041845422
99	0xbdc2f5b4	-0.095195204
100	0x3e3791fc	0.17926782
101	0xbf1eba34	-0.62002873
102	0xbe864036	-0.26220864
103	0xbec745d4	-0.38920462
104	0xbc9ff348	-0.019525185
105	0xbdb87180	-0.090060234
106	0xbe27ad98	-0.16374815
107	0xbea71eea	-0.32640773
108	0x3e2a5f32	0.16637877
109	0xbc649154	-0.013950665
110	0x3d0ec6d2	0.03485758
111	0xbf3aba8a	-0.72940886
112	0x3d48f43b	0.04906104
113	0xbc43d173	-0.011951792
114	0xbedefaab	-0.4355062
115	0xbea013aa	-0.31265002
116	0xbec3f4c2	-0.38272673
117	0x3de92858	0.11384648
118	0xbf365d69	-0.7123628
119	0xbf4891e0	-0.7834759
120	0x3d3eb359	0.046557758
121	0x3cd1c54f	0.02560678
122	0xbf9610dd	-1.1723896
123	0xbec29332	-0.38002926
124	0xbdfbddb3	-0.12298145
125	0x3e8478c1	0.25873378
126	0xbd507ac3	-0.050898325
127	0xbe645bf4	-0.22300702
128	0xbd8d4b3d	-0.06899116
129	0x3d046dd2	0.032331295
130	0x3ca2ac28	0.019857481
131	0x3c2a073e	0.010377703
132	0xbd9bcac1	-0.076070316
133	0x3d9806ee	0.07423197
134	0xbdf22ed8	-0.11825341
135	0xbdec33a2	-0.11533286
136	0x3b067033	0.0020513653
137	0x3d1f7f4d	0.038939763
138	0xbce41af8	-0.027844891
139	0xbd985566	-0.074381635
140	0x3cc38009	0.023864763
141	0xbd2a866b	-0.041632097
142	0xbe20812d	-0.15674277
143	0xbc3661b9	-0.011131697
144	0xbcb0b2fc	-0.021569721
145	0xbe214253	-0.15747957
146	0x3c99ba37	0.018765552
147	0xbd491b2c	-0.04909818
148	0x3c0f6350	0.008751705
149	0xbd3ef898	-0.046623796
150	0xbdb2f78c	-0.08738622
151	0xbdca30cd	-0.09872589
152	0xbe2c18fc	-0.16806406
153	0x3c1870c0	0.009304225
154	0xbd9aeb4a	-0.07564409
155	0xbdc4b2ca	-0.09604414
156	0xbb0f54c0	-0.0021870583
157	0xbdcc8333	-0.09985962
158	0xbc749bb6	-0.0149297025
159	0xbbcf5143	-0.006326826
160	0xbdbd6bb6	-0.0924906
161	0xbe325ea6	-0.17418918
162	0xbcccca9c	-0.024998955
163	0xbe0c7571	-0.13716675
164	0xbce94f0c	-0.028480075
165	0x3d22ff80	0.039794445
166	0x3dfd9544	0.12381986
167	0x3b99d030	0.0046940073
168	0xbcc8b65e	-0.024501022
169	0xbcdaffc8	-0.026733294
170	0x3de90434	0.11377755
171	0x3d06eef2	0.03294272
172	0x3ddf382a	0.10899384
173	0xbd99d914	-0.075121075
174	0xbda72264	-0.08160856
175	0xbd5317e8	-0.05153647
176	0xbe02e7de	-0.12783763
177	0xbded48ee	-0.11586176
178	0xbdf0cc22	-0.11757685
179	0x3df69d1a	0.120416835
180	0xbdc39522	-0.09549929
181	0xbd82f002	-0.06393434
182	0x3dbad4a2	0.09122588
183	0x3d7674e0	0.060170054
184	0xbe05e1cf	-0.1307442
185	0xbe2b9715	-0.16756852
186	0x3d4568f0	0.04819578
187	0xbbcd9b20	-0.006274596
188	0x3da2f2a6	0.07956438
189	0xbe33ce77	-0.17559229
190	0x3cc5e618	0.024157569
191	0x3dad5236	0.08462946
192	0x3cb61987	0.02222897
193	0xbde7b0b2	-0.11312999
194	0xbed82354	-0.42214453
195	0xbf00eef9	-0.50364643
196	0xbf002943	-0.5006296
197	0x3d004393	0.031314444
198	0xbead4926	-0.3384487
199	0xbd8c6dc1	-0.068568714
200	0x3d6f0842	0.058357485
201	0x3c123588	0.008923896
202	0x3cc3fb05	0.023923406
203	0xbdb0a642	-0.08625461
204	0x3cb499a7	0.022045923
205	0x3cfffa44	0.031247266
206	0x3e01edde	0.12688395
207	0xbed59696	-0.4171645
208	0xbe853a78	-0.2602117
209	0xbdeefddc	-0.116695136
210	0xbd036a39	-0.032083724
211	0x3ddb7d4d	0.107172586
212	0x3cf0313e	0.029320356
213	0xbf413da2	-0.7548467
214	0xbd97e968	-0.074175656
215	0xbcab36da	-0.020900179
216	0x3dff18f4	0.12455931
217	0xbec13210	-0.37733507
218	0xbf04891d	-0.5177172
219	0xbeae37c8	-0.34026933
220	0xbf4a9942	-0.791401
221	0x3d201a5f	0.03908765
222	0xbac13871	-0.0014741552
223	0xbd4a4566	-0.04938259
224	0xbed96586	-0.4246027
225	0xbed06a6a	-0.40706187
226	0xbdba84a8	-0.091073334
227	0xbd194a01	-0.03742409
228	0x3d9da586	0.07697587
229	0xbf3bc096	-0.7334074
230	0xbe905288	-0.28187966
231	0xbec70f81	-0.38879016
232	0x3c492b37	0.01227837
233	0xbec7b3b8	-0.39004302
234	0xbeda9a6a	-0.42695934
235	0xbef0b2d5	-0.47011438
236	0xbc4d9f30	-0.01255016
237	0x3e1cee90	0.1532538
238	0xbe7fca73	-0.24979572
239	0xbf3e1c07	-0.74261516
240	0x3c3fcee4	0.011707041
241	0xbe449f8b	-0.19201486
242	0xbf2e9ab9	-0.6820484
243	0xbea9e769	-0.33184364
244	0xbed59110	-0.41712236
245	0x3c5b156a	0.013371805
246	0xbf01a115	-0.50636417
247	0xbe94313e	-0.2894382
248	0xbd2959be	-0.04134535
249	0x3cd5ab9a	0.026082803
250	0xbf91b82b	-1.1384329
251	0xbeed6afb	-0.46370682
252	0x3e26b29d	0.16279073
253	0xbd1f1d74	-0.038846448
254	0x3dff040d	0.124519445
255	0x3d3b5096	0.04573115

fc2.bias f4 [64]
0	0x3e32d717	0.17464863
1	0x3e60a79c	0.21938938
2	0xbde7496d	-0.11293302
3	0x3e4d82c9	0.20069422
4	0x3e953e49	0.29149082
5	0xbe093262	-0.13398126
6	0xbc41eef6	-0.011836758
7	0x3e2a3a31	0.16623761
8	0xbd2b135c	-0.04176651
9	0x3e85c13c	0.2612399
10	0xbe11da1a	-0.14243355
11	0x3e9875d8	0.29777408
12	0xbe1de0a0	-0.15417719
13	0x3e25ba27	0.16184293
14	0xb8da1b30	-0.00010400114
15	0xbdbbdd33	-0.0917305
16	0xbe17b5a4	-0.14815384
17	0x3e3c2b44	0.1837588
18	0xbdc1363c	-0.094341725
19	0x3d419632	0.047262378
20	0xbdbb6b53	-0.0915133
21	0x3dd9f84c	0.10643062
22	0x3da70d36	0.08156817
23	0x3e84f74c	0.25969923
24	0x3e5719d9	0.21005954
25	0x3e99e336	0.3005616
26	0xbd90f700	-0.070783615
27	0x3c4d0fe0	0.012515992
28	0xbd48ab08	-0.048991233
29	0x3e93c571	0.28861573
30	0x3ec742f3	0.38918266
31	0xbd88aee6	-0.06673984
32	0xbb89c324	-0.004204171
33	0x3dd7d2a6	0.10538225
34	0x3e6a868a	0.22902885
35	0x3e267bd8	0.1625818
36	0x3d1fc34c	0.03900461
37	0xbe2c148a	-0.1680471
38	0x3e1684de	0.14699122
39	0xbca00ca9	-0.019537287
40	0x3e987ee6	0.29784316
41	0x3eb1eb99	0.3475006
42	0x3e8b1307	0.27162954
43	0xbc0ed5bc	-0.00871795
44	0x3e37f8df	0.1796603
45	0x3d6ceec4	0.057844892
46	0xbd87e5b8	-0.06635612
47	0x3e828cc3	0.25498018
48	0x3ec75b3f	0.38936803
49	0x3ae429cb	0.0017407475
50	0x3e8994b8	0.26871276
51	0x3e128eca	0.14312282
52	0x3e720ca1	0.2363763
53	0x3e9b4312	0.30324608
54	0xbd5fe645	-0.05466296
55	0xbcd7c5ea	-0.02633949
56	0x3e4017f5	0.18759139
57	0x3bd67add	0.006545408
58	0xbe023737	-0.12716375
59	0x3e8d0e06	0.27549762
60	0xbd5179e7	-0.051141646
61	0x3e6fdee3	0.23424868
62	0x3e29c362	0.16578439
63	0x3c2fd689	0.0107323015

fc3.weight f4 [2, 64]
0	0x3eb025fa	0.34403974
1	0x3e716eb8	0.23577392
2	0xbc0afaf4	-0.008482683
3	0x3eac2a7e	0.3362617
4	0x3f129010	0.5725107
5	0x3d827676	0.06370251
6	0xbcd92cb0	-0.026510566
7	0x3e8e9f79	0.27856043
8	0xbd4e950c	-0.05043511
9	0x3ede8d42	0.43467146
10	0xbcb097b1	-0.021556707
11	0x3eadc3ba	0.3393839
12	0x3dd75a7a	0.10515304
13	0x3ec38bbd	0.3819255
14	0x3ec1ed48	0.37876344
15	0xbcab5b23	-0.02091748
16	0xbc06fbf2	-0.008238779
17	0x3f2c4047	0.6728558
18	0x3dea07dd	0.11427281
19	0xbdd68c5b	-0.104759894
20	0xbddaee88	-0.106900275
21	0x3ec03478	0.3754003
22	0x3eaa207a	0.33227903
23	0x3ebafe79	0.36522272
24	0x3f37749d	0.7166231
25	0x3f3d788c	0.74012065
26	0x3d949364	0.07254675
27	0x3d13ffb4	0.03613253
28	0x3ca43a8f	0.020047454
29	0x3ec0e124	0.3767177
30	0x3f43fc12	0.76556504
31	0xbdb732a0	-0.08945203
32	0x3d9afc33	0.075676344
33	0x3eb5439e	0.3540315
34	0x3f07c530	0.5303526
35	0x3eefee56	0.46861523
36	0x3c74a618	0.014932178
37	0xbce9d54a	-0.028544087
38	0x3e9c4c9e	0.30527204
39	0x3d84262f	0.064525954
40	0x3e2e1de6	0.17003593
41	0x3f583912	0.8446208
42	0x3f3dda17	0.74160904
43	0xbd3396f7	-0.043845143
44	0x3edb89c9	0.4287856
45	0x3e3b7761	0.18307258
46	0xbca19ef6	-0.019729119
47	0x3e9fca77	0.31209156
48	0x3f6a4493	0.91510886
49	0x3d1d2e6c	0.03837435
50	0x3edf1af3	0.43575248
51	0x3e0fe62f	0.14052652
52	0x3eb3bb64	0.35103905
53	0x3f5b1e29	0.85592896
54	0xbc6ab3e3	-0.014325115
55	0x3d4f7170	0.05064529
56	0x3edd02a9	0.43166092
57	0x3c8a6a10	0.016896278
58	0x3ddf9e5c	0.109188765
59	0x3ebd3142	0.36951643
60	0x3cf9c474	0.030489184
61	0x3eb6aeaa	0.35680133
62	0x3e8c11cd	0.2735733
63	0x3d84e6c2	0.06489326
64	0x3ee7978e	0.45232815
65	0x3f01e0f4	0.50733876
66	0xbd25dec8	-0.040495664
67	0x3eb93c95	0.36179033
68	0x3ebc8b01	0.36824802
69	0x3ced7672	0.028987143
70	0x3cabe53a	0.020983327
71	0x3ecfe6e8	0.40605855
72	0x3dbcb9ab	0.09215101
73	0x3ee4ed74	0.44712412
74	0x3dc71286	0.0972033
75	0x3ea29ccc	0.31760252
76	0x3ce56dc7	0.028006447
77	0x3eb410aa	0.35168964
78	0x3ebaac19	0.36459425
79	0x3d8ff0dc	0.07028362
80	0xbcdc6028	-0.02690132
81	0x3edc08dc	0.4297551
82	0x3d7caba8	0.06168714
83	0x3f67a40a	0.9048468
84	0xbda08684	-0.07838157
85	0x3e47ecd7	0.19523941
86	0x3efc8255	0.49318185
87	0x3efed1cb	0.49769434
88	0x3e91ec66	0.2850067
89	0x3ee2ef0d	0.44323006
90	0xbcce3208	-0.025170341
91	0xbbfc0640	-0.0076911747
92	0x3dbfac00	0.09358978
93	0x3ed443f2	0.41458088
94	0x3db00007	0.08593755
95	0x3d2b83d4	0.041873768
96	0xbd025c02	-0.031826027
97	0x3f06e250	0.52689075
98	0x3e5dd657	0.21663795
99	0x3ebc65f4	0.36796534
100	0x3dbd91c7	0.092563204
101	0xbd656572	-0.05600495
102	0x3eba3c37	0.36374065
103	0x3c652a63	0.013987157
104	0x3f49ff09	0.7890478
105	0x3f1cc94b	0.6124465
106	0x3e1dc592	0.15407398
107	0x3d904db0	0.07046068
108	0x3e931b8f	0.28731963
109	0x3eb07694	0.34465468
110	0xbc3347bf	-0.010942399
111	0x3e972b9f	0.29525468
112	0x3f1a0ded	0.601775
113	0x3db75576	0.08951847
114	0x3e1e1289	0.15436758
115	0x3f24f80c	0.6444099
116	0x3ea8072d	0.32817975
117	0x3f2690da	0.65064776
118	0x3d100dbd	0.03516935
119	0xbded1886	-0.11576943
120	0x3ef33df4	0.47508204
121	0xbc64ff7b	-0.013976927
122	0x3d9619ed	0.07329164
123	0x3e55a172	0.20862368
124	0x3dc51944	0.0962396
125	0x3f0a9020	0.5412617
126	0x3ef32eb1	0.4749656
127	0xbcb4470c	-0.022006534

fc3.bias f4 [2]
0	0x3edd86af	0.43266818
1	0x3eaca159	0.33716848
